rl_agent/model.pt (torch, 73345 bytes, 6 tensors)

net.0.weight f4 [128, 5]
000000 3d 8d 3e c1 50 be 29 3e cc fe bc be 8c ff 46 c1
       -11.909482 0.16576505 -0.36913145 -12.437389
000010 6e fd 9d 3e 6a cc 4f c1 f7 7d 1d 3d 10 6e 29 3e
       0.30857414 -12.987406 0.038450208 0.16545892
000020 c2 c2 46 c1 ba ac 82 3e 56 32 0b c0 d4 c5 19 bd
       -12.422548 0.25522405 -2.1749473 -0.03754218
000030 67 dd b8 bc ef a6 3a c0 44 d7 89 3e ae 0c e1 3e
       -0.02256651 -2.9164388 0.26922047 0.43954986
000040 00 e4 ab bc fe ba 98 be 78 09 db 3d 18 c9 f1 3d
       -0.020982742 -0.29830164 0.106951654 0.11805934
000050 56 83 5f 41 e8 92 6a 3e d6 b0 3f be e2 46 5a 41
       13.969564 0.22907603 -0.18719801 13.642305
000060 77 82 dc be be db 05 c0 90 bc fa b8 fd 46 b7 bd
       -0.43068287 -2.091537 -0.000119560515 -0.08949087
000070 fb 7f 15 c0 56 37 dd be c0 c2 2e c1 83 b0 67 3d
       -2.3359363 -0.4320628 -10.922546 0.05656482
000080 06 6f 61 bd 38 ae 28 c1 5d c3 d3 be a4 02 ae be
       -0.05503752 -10.542534 -0.41359988 -0.3398639
000090 95 63 15 bf ff 14 fb bc 54 66 75 3e c4 a6 4d 3e
       -0.58355075 -0.03064966 0.23964816 0.20083147
0000a0 2b 1d 5b c1 2a 44 ae 3d f7 d0 96 be c5 0c 62 c1
       -13.694621 0.08509095 -0.29456303 -14.128118
0000b0 c7 06 b3 be 30 f3 9b 3c 94 c8 80 be c4 02 6b be
       -0.34966108 0.01903686 -0.2515303 -0.22950274
0000c0 48 9e f4 bd 9c 04 f7 bd 6c 85 ba 3e e5 67 c8 be
       -0.11944252 -0.12061426 0.36429918 -0.39141765
0000d0 c2 a0 d4 bb 1e 1e 8d be e0 20 67 bc dd 86 cb be
       -0.0064888904 -0.2756204 -0.014106959 -0.3975133
0000e0 ce 87 05 be ba 09 20 be f8 23 ae 3d c0 51 55 bc
       -0.13040087 -0.1562871 0.08502954 -0.013019979
0000f0 76 5a 35 bf fb 04 2c be 32 69 a9 3e 03 33 2c bf
       -0.7084116 -0.16798775 0.3308807 -0.6726534
000100 0a f2 b4 be fe b4 61 c0 9e 57 43 bd d4 2b 6c 3f
       -0.3534091 -3.526672 -0.04769098 0.92254376
000110 ad 04 86 c0 0c 61 1f 3e ab 6b 4a c1 14 80 9f 3e
       -4.188071 0.15564364 -12.651286 0.31152403
000120 6a df df bd 0c be 4c c1 4c 04 91 be b6 ca 5f c1
       -0.10931285 -12.796398 -0.2832359 -13.98699
000130 56 18 be 3e 37 8e b7 be 0d a8 60 c1 e0 eb 8c 3e
       0.37127942 -0.3585069 -14.041028 0.27523708
000140 cc 34 6c be 82 7a cb be 09 4b c3 be 4d 09 e1 be
       -0.23067015 -0.39741904 -0.38143185 -0.43952408
000150 24 43 c4 be 84 53 2a 3e e5 e8 c3 be 3d 2f 9d be
       -0.38332474 0.16633421 -0.38263622 -0.30700102
000160 44 ab 52 3e 89 7c 57 be ea 9c 64 c1 ee 1d 7b 3e
       0.20573145 -0.210436 -14.288309 0.24523136
000170 f8 a5 06 bf df 3d 63 c1 38 1e 4c bd 35 87 88 c0
       -0.52597 -14.202605 -0.049833506 -4.266505
000180 a7 3e 95 bd 87 29 5c bb 51 c0 92 c0 00 d2 0c 3d
       -0.072873406 -0.0033594088 -4.585976 0.03437996
000190 9b 90 e6 40 ab 2e 66 ba 62 36 b4 bd de 6e f5 40
       7.205152 -0.0008780758 -0.08799435 7.6697836
0001a0 b2 cf 1e be ec c6 62 c1 08 1d f1 bc a7 a7 22 be
       -0.15508917 -14.173565 -0.029432788 -0.15884267
0001b0 a3 39 5c c1 cc 0a 1f be f8 57 8d be 35 23 e4 be
       -13.764071 -0.15531462 -0.27606177 -0.4455811
0001c0 6e 46 79 be 10 df a7 3d 30 9d 3f bd 18 e7 ee 3d
       -0.24343273 0.08196843 -0.046780765 0.116651714
0001d0 68 de 96 bd 5c 9e c9 be 40 4a ee bd a4 dc a6 3e
       -0.073666394 -0.3937863 -0.11635256 0.3259021
0001e0 f0 5f 44 3e 58 ab c8 bd 70 3b a0 be 59 46 4c be
       0.19177222 -0.09798306 -0.31295347 -0.1994871
0001f0 e6 29 cb 3e 0c 29 e4 3e 7c 2a 5c be 1e 7a 9f be
       0.39680403 0.44562566 -0.21500582 -0.31147856
000200 68 dd 59 3e 8e c8 c7 be 52 1e df 3e bc e7 df bd
       0.21275866 -0.390202 0.4357782 -0.10932872
000210 b0 8f 22 bd 8e 80 92 3e e0 9a 11 be 2e 01 60 c0
       -0.039687812 0.28613704 -0.14219236 -3.500072
000220 18 6c db bd c6 8b f8 bc 9a d5 2d c0 88 99 e4 3d
       -0.107139766 -0.030340087 -2.7161622 0.11162096
000230 b2 9f 26 be e8 fd 54 bd 45 16 e4 be 09 17 c1 be
       -0.16271856 -0.051999956 -0.4454824 -0.37712887
000240 cd ab 74 be 14 8f 8e c0 ba 2e 88 bb 39 28 4b be
       -0.23893662 -4.4549656 -0.004155961 -0.19839562
000250 37 01 85 c0 55 d6 ba be c3 f0 46 c1 d9 ce ee 3d
       -4.1563983 -0.36491647 -12.43378 0.11660547
000260 88 a4 70 3e d7 8c 41 c1 18 44 fb bd 66 e4 4a c1
       0.23500264 -12.096885 -0.12268847 -12.680761
000270 14 15 bf 3d d1 f9 87 bd 02 ee 46 c1 ac 7d 25 be
       0.09330192 -0.066394456 -12.433107 -0.16161221
000280 4a 2b 12 c1 dc 36 a0 3c b7 5b b6 3b bf ef 0e c1
       -9.135569 0.019557409 0.0055651325 -8.933532
000290 ce 2d 99 be 38 ab b0 3e 24 ad ce be 4c 59 5c 3e
       -0.2991776 0.3450563 -0.4036647 0.21518439
0002a0 c0 dc 78 3c 3e 1f 81 be ce 88 1e be 98 46 12 be
       0.01518935 -0.25219148 -0.15481874 -0.14284742
0002b0 38 52 05 bd b8 78 9d 3d 44 1a 73 3e 80 1d a7 3e
       -0.032549113 0.07689041 0.23740488 0.32639694
0002c0 82 a6 67 be f0 29 34 be 40 b0 9b 3c 24 87 e4 bd
       -0.22622111 -0.17594123 0.019004941 -0.111585885
0002d0 ce d3 b0 be e4 93 d5 be a7 3a 08 bc 46 65 b1 3e
       -0.34536594 -0.41714394 -0.008314765 0.34647578
0002e0 1d 6e ac be ad 95 be 40 d6 07 c2 3e d4 cd 93 be
       -0.3367776 5.955771 0.37896603 -0.28867972
0002f0 4a 67 ba 40 f0 79 47 3d 20 3d 2d bd 8b 92 de be
       5.8251085 0.048700273 -0.04229462 -0.43471178
000300 c6 95 e7 bb 9e f2 c7 3e 50 c5 b8 3d 65 d3 da be
       -0.007067415 0.3905229 0.090220094 -0.42739406
000310 36 1e ef be 11 2a 75 bb 18 3f 09 3e a0 71 d0 3d
       -0.46702737 -0.0037409107 0.13402975 0.10177922
000320 0a 31 ab 3e b6 2f 2d bf 78 b1 dc 3d ea a5 07 be
       0.3343585 -0.67650926 0.10776037 -0.13246885
000330 e0 41 1a 3e 78 5c ab bd 23 09 a9 be bf b4 1b 3e
       0.15064192 -0.083672464 -0.33014783 0.15205668
000340 c6 2f ff 3d 94 61 28 3e 58 33 95 bd 62 94 80 be
       0.12460284 0.16443473 -0.07285184 -0.25113207
000350 c6 74 88 be 5a 0a b2 be a0 30 dc 3d c6 20 16 c0
       -0.2665159 -0.34773523 0.10751462 -2.3457503
000360 b1 14 be bc d7 81 83 3e 57 98 03 c0 92 3e de be
       -0.023203226 0.25684997 -2.056173 -0.43407112
000370 a0 3c 0f 3c df 25 84 be 8c 2f 65 3e 05 3c 92 be
       0.0087424815 -0.25810143 0.22381419 -0.28561416
000380 c0 44 13 be 44 02 d0 c0 3e 0e b4 bb 41 84 91 bd
       -0.14381695 -6.5002766 -0.005494862 -0.071053036
000390 01 60 cf c0 04 52 e8 bd bd 0c da be 98 30 fe bd
       -6.480469 -0.11343768 -0.42587844 -0.12411612
0003a0 05 a2 9a be 19 cc 91 be 00 d0 09 3e 0c ad 88 3e
       -0.30201736 -0.28476027 0.13458252 0.26694524
0003b0 31 ef 4f be c0 18 8c bc ae 1e 39 be 42 25 b8 be
       -0.20306088 -0.017101645 -0.1807811 -0.35965925
0003c0 ad 3d 74 bf 91 52 0d b9 11 10 03 bf 15 87 b5 bf
       -0.9540661 -0.00013477566 -0.5119639 -1.4181849
0003d0 06 eb db 3e 5c 02 82 be 97 42 b6 be 63 46 bb be
       0.42952746 -0.25392425 -0.3559768 -0.36577138
0003e0 98 66 47 bd e0 a1 53 3e f2 63 2a c1 4e 39 9e 3e
       -0.048681825 0.20667219 -10.649401 0.30903095
0003f0 e6 b0 96 3e 80 df 23 c1 d0 d4 6d 3d de c1 98 3e
       0.29431838 -10.242065 0.058064282 0.2983541

net.0.bias f4 [128]
000000 84 b9 45 3e 04 d9 22 3f e2 22 a1 3e dc 42 24 3e
       0.1930905 0.6361239 0.31471926 0.1604113
000010 0f d7 1f bf 7e af bb 3e 9b df 0c be d0 01 db be
       -0.6243753 0.36657327 -0.13757174 -0.4277482
000020 fd ac d8 3d 06 04 93 be 5f e3 71 3b 70 b8 73 3d
       0.1057987 -0.28714007 0.0036909205 0.059502065
000030 90 3d 9f 3f 9c 03 88 40 71 3a 4a 3f 23 27 ca 3e
       1.2440662 4.2504406 0.78995425 0.39482984
000040 e6 1e aa be de 2f 47 be a7 b2 15 3f 35 87 c9 be
       -0.332267 -0.19451854 0.58475727 -0.39360967
000050 67 2f f2 be 89 4f 41 bc bb e8 e1 be a0 bd 43 3e
       -0.4730179 -0.011798748 -0.44122872 0.19115305
000060 f8 65 33 be 30 24 52 be b0 db 79 3d c7 20 24 3e
       -0.17519367 -0.20521617 0.061000526 0.16028129
000070 79 a4 87 be 30 80 3e 3e ca 9e 53 3f fe 87 94 be
       -0.2649267 0.18603587 0.8266417 -0.29010004
000080 d7 59 55 bb ba 61 90 bf c4 d6 81 be 00 13 82 3e
       -0.003255477 -1.1279824 -0.25359166 0.2540512
000090 77 d4 85 3e 66 a3 ef 3d cb 90 a0 be af 22 8c be
       0.2613866 0.11701088 -0.31360468 -0.2737021
0000a0 17 cc 82 3e f2 3f e5 3e 26 5c c3 3e cd 7d 39 bf
       0.25546333 0.4477535 0.3815624 -0.7245758
0000b0 ea 93 5b bf 4b 3a 54 3e 72 1a 0a be 40 a1 e5 bd
       -0.85772574 0.20725362 -0.1348665 -0.112123966
0000c0 f5 99 73 be f8 93 91 3d 95 89 b6 3e 6d d6 92 be
       -0.23789199 0.07108301 0.35651842 -0.2867922
0000d0 59 53 1d bf 85 39 83 be 8c 86 4b 3e d8 50 1f 3e
       -0.61455303 -0.2562982 0.19875544 0.15558183
0000e0 37 d8 8e 3d be f8 df be d7 2c c9 ba a3 65 22 be
       0.069748335 -0.43744463 -0.0015348446 -0.15859084
0000f0 b4 2b 5c 3e 97 5a c7 bd fe 2d 71 be 40 87 58 3c
       0.21501046 -0.097340755 -0.23552701 0.01321584
000100 1f 03 08 bf 5e ef 27 3f 1b 5a da bd 0b 4e 0a 3f
       -0.5312976 0.6559962 -0.106617175 0.54025334
000110 7e d1 a0 be e9 5d cb bc 60 42 b3 bc b7 3a 0d 3f
       -0.3140983 -0.024825053 -0.021882236 0.55167717
000120 1c e7 9d be b9 ea ff be d4 cc 5d be a6 a9 d9 be
       -0.30840385 -0.49983767 -0.21660167 -0.42512244
000130 bc 4b 94 3e f0 00 56 3d ce 27 d1 be 01 5f 1b bc
       0.2896403 0.052246988 -0.4085068 -0.0094831
000140 0c d6 a0 be a4 68 9b 3e 04 5c 5f 3e 87 81 05 bf
       -0.31413305 0.30353272 0.21812445 -0.5215077
000150 e6 10 61 3e 70 a2 07 40 5e 3b 8d be 30 59 c1 3d
       0.21979102 2.1192894 -0.27584356 0.09440839
000160 5c 7e c4 3e ff bf 04 3e ed 38 0e 3e bd a2 9e be
       0.38377655 0.12963866 0.13888903 -0.30983534
000170 31 08 ae bc d8 7f b5 be 9e a0 05 bf dc 98 1e 3f
       -0.02124414 -0.354491 -0.5219821 0.61951995
000180 fd 54 65 3f fd e8 c5 3f 28 2f 8f 3e bf 95 82 be
       0.89582807 1.5461727 0.27965665 -0.25504872
000190 7a 2f 3f be 2d 78 19 3f f0 fc 5c 3d 4e 6f 26 bf
       -0.18670455 0.59949 0.053952157 -0.6501359
0001a0 a8 9d 84 3d ca 22 6d bf 61 4b 03 be 9d 10 38 3e
       0.06475383 -0.9263121 -0.12821724 0.17975087
0001b0 10 6c e7 bd e2 0e 88 bf a6 b3 1d 3f 5b be a8 be
       -0.11299908 -1.0629542 0.61602247 -0.3295773
0001c0 42 8c 14 be eb 44 60 bf 58 4b 62 3e 57 2a 72 be
       -0.14506629 -0.8760516 0.22099054 -0.23648964
0001d0 75 50 5c bf b7 60 5c 3e 4c 8a 9a be 78 5c a5 3d
       -0.8606027 0.21521269 -0.30183637 0.08074278
0001e0 ac 0b a9 be e8 30 a4 be d3 e7 1d bf b8 c3 34 bd
       -0.33016717 -0.32068563 -0.6168186 -0.044131964
0001f0 8f 9e 80 3e b5 ef ff 3d 0a 78 30 be 6c 39 09 be
       0.2512097 0.12496892 -0.17233291 -0.13400811

net.2.weight f4 [128, 128]
000000 35 e5 01 3d a3 60 10 bd 7b 3b b4 3b 87 1b 12 bd
       0.03171273 -0.03524841 0.0055002547 -0.035670783
000010 e0 a0 aa bd 36 d2 60 3d c5 bd e7 bd 87 02 5a bd
       -0.08331466 0.054887973 -0.113154925 -0.053225067
000020 46 a4 35 bd 76 fa e1 bc fa 56 58 be 50 ae c8 3b
       -0.044346116 -0.02758525 -0.21126929 0.0061242953
000030 50 e1 18 be fa db a2 bc c6 3c 31 bd c2 d5 b2 bd
       -0.149297 -0.019880284 -0.04327085 -0.08732177
000040 4c d2 8a bc c0 cf b8 ba 0a ad 4f 3d d8 59 8a bc
       -0.01694598 -0.00141 0.050702132 -0.016888544
000050 c3 1e 65 bd c7 74 13 3d 56 de 12 bd d4 9a a1 3c
       -0.05593754 0.03600004 -0.035856567 0.019727148
000060 c0 32 df ba 35 68 ab bd 80 87 78 ba 1f f1 13 3d
       -0.0017028674 -0.08369485 -0.00094806403 0.036118623
000070 78 5f b1 bd 69 50 67 bd bc 39 e1 3c 4f 8e fb bd
       -0.08660787 -0.05647317 0.02749335 -0.122830026
000080 3c 9e 3e 3d 92 35 c6 bc 98 a7 d5 bc 48 be 9c bd
       0.046537623 -0.024195466 -0.026080891 -0.07653481
000090 ba 73 9f 3c a2 b5 45 3d 29 bd bf bc 01 29 a2 bd
       0.019464362 0.04826892 -0.023405628 -0.07917977
0000a0 7c 99 ab bd 1d 61 9f 3b 08 59 25 bc 5f 5e 8f 3c
       -0.08378884 0.0048638717 -0.0100920275 0.017501054
0000b0 8d 0b b3 3d d3 b3 a6 3d 38 63 3f bc 70 87 4d bd
       0.087424375 0.081397675 -0.01168137 -0.05017799
0000c0 17 f0 a0 3c 3b 5a aa bd 5e ce 72 bc be 4d 9c 3c
       0.019645734 -0.08317991 -0.01481971 0.01908004
0000d0 8b 8c 03 3d 79 96 e2 bd b8 a3 d6 3c fa e0 2b 3d
       0.032116454 -0.11063857 0.026201114 0.0419626
0000e0 ab fb 51 bd 70 94 3e bc e5 27 39 bd fa 0c 54 3d
       -0.0512654 -0.01163207 -0.045204062 0.051770188
0000f0 c4 f0 d8 3c a1 5b 45 3c 80 32 98 3d f2 fa 6a bd
       0.026481993 0.012045772 0.07431507 -0.057368226
000100 54 2f ae bc 61 6e 96 bc a5 14 89 3d 92 4c a3 bd
       -0.021262802 -0.01836318 0.06693391 -0.07973589
000110 3d 2e 09 be 98 f4 82 bd 9e 15 84 bd cf c8 3d bc
       -0.13396545 -0.06394309 -0.06449436 -0.011583521
000120 d7 aa 9f 3d 56 bc f6 3c b1 1e c1 bb 4c 1c e5 3c
       0.07796257 0.030119102 -0.0058935513 0.027967595
000130 4c 1c 28 3d 11 ec 86 3d 90 a7 d7 bd 7f d8 04 be
       0.04104261 0.06587995 -0.10530007 -0.12973212
000140 08 fd 4b bc 05 8c 11 bd 58 bc af bd c0 1e 24 3d
       -0.012450464 -0.035533924 -0.085808456 0.040068388
000150 97 8c 8f bd 85 43 be bc 79 95 18 3a 34 3b ad bc
       -0.07009237 -0.023225555 0.0005820613 -0.021146394
000160 65 0a 6a bd c4 8b 46 bd 60 15 d6 bd d2 87 3a 3d
       -0.05713882 -0.048473135 -0.10453296 0.045539685
000170 66 80 2d be 55 e7 8e 3d 05 f3 62 bc be 4f 01 be
       -0.16943511 0.06977717 -0.013851886 -0.12628075
000180 cb 23 a6 bd 11 c9 8c bd 36 6b 07 3c b8 73 91 3c
       -0.08112296 -0.06874288 0.008265307 0.017755374
000190 6d dc 43 3d e4 31 d8 bd c1 6a af bd ce d4 4a bc
       0.047817636 -0.10556391 -0.085652836 -0.012379838
0001a0 0d 32 94 bd a3 14 c2 3b 2d b4 41 3d 6e ef f4 3c
       -0.07236109 0.0059228702 0.04729097 0.029899325
0001b0 38 2f 14 bc b4 6a 18 bd a9 ec a8 bc 50 4f d5 bc
       -0.009044461 -0.037211135 -0.02062066 -0.026038796
0001c0 50 c1 09 3d 09 1c 16 3d 04 46 ac bd e2 77 f3 bc
       0.033631623 0.03664783 -0.08411792 -0.02972025
0001d0 88 dc 4f bd 3a 2b bd bd 21 e5 00 bd 14 29 e3 3c
       -0.050747424 -0.092367604 -0.031468514 0.027729549
0001e0 40 69 94 ba b2 46 90 3d 32 dd 64 bd a6 42 70 3d
       -0.0011322871 0.07044734 -0.05587501 0.05865731
0001f0 74 f4 e0 bd b1 38 81 bd 76 07 57 3d f6 51 79 3d
       -0.10984126 -0.06309641 0.05249735 0.06086918
000200 af 45 80 bc 80 08 7d bd 70 eb 4d bc d8 0c 3a bd
       -0.015658228 -0.061775684 -0.01256834 -0.045422405
000210 72 08 2d bd 44 4f d3 3c eb 7a 23 3c dc 25 da 3a
       -0.042244382 0.025794633 0.009978036 0.0016643363
000220 47 e6 86 bd 87 b9 b1 3d e8 a6 63 3c cb 2d ac bd
       -0.06586891 0.08677965 0.013894774 -0.08407172
000230 9c d4 74 3d f4 ae da 3c 85 96 61 bd 86 94 eb bd
       0.059773073 0.026694752 -0.055075187 -0.11502938
000240 18 cc 3e bc 44 3f db bc ca 04 af bc 56 6e 14 bd
       -0.011645339 -0.026763566 -0.021364588 -0.036238037
000250 4b 85 15 bd 96 ce 33 3d de 51 45 3d f3 6c 9d 3d
       -0.03650407 0.043898188 0.048173778 0.07686796
000260 40 c3 a4 bc 42 0d 57 bd 60 a7 82 bb 12 b6 60 3d
       -0.020112634 -0.052502878 -0.003987238 0.054861136
000270 d6 27 e9 bc 50 cc 45 3c 79 89 89 3c a7 31 a4 bd
       -0.028461378 0.012072638 0.016789185 -0.08017283
000280 97 c2 48 3d 5d 83 85 3b 1a c0 55 3d 50 f7 96 bd
       0.0490137 0.0040744976 0.052185155 -0.0737139
000290 9e a4 16 3d 38 16 2f bd f8 fc cd bc 1c c1 b2 bd
       0.036778085 -0.0427458 -0.025145039 -0.08728239
0002a0 a0 d7 17 bd dc 7e 44 bd a2 7c 46 3d 2a 4b 2c 3d
       -0.03707087 -0.047972545 0.048458703 0.04206387
0002b0 b0 6c 6c 3d 95 39 1c bd 88 8f 24 3c d7 dc 89 3d
       0.05772084 -0.038140852 0.010043986 0.06731575
0002c0 75 22 b2 3d 80 aa f3 bb aa fc 50 bd aa 34 27 bd
       0.086979784 -0.0074360967 -0.05102221 -0.04082171
0002d0 a6 17 99 3d 71 c1 53 bd 24 37 88 bc 40 88 ff ba
       0.07475214 -0.051698152 -0.016627856 -0.0019495562
0002e0 2a 96 43 bd 5f 2f 48 bd 86 24 96 3d 76 e2 86 bc
       -0.04775063 -0.0488733 0.07331185 -0.016465407
0002f0 d4 5b 21 bd d7 7d dd bd 18 1f f2 3c 94 ea f0 bc
       -0.039394215 -0.10815018 0.029555842 -0.02940873
000300 aa 74 37 3d f9 ff 8e 3d 69 1d 70 bd ad 32 81 3c
       0.044788994 0.06982417 -0.058621798 0.015771234
000310 6d 27 9e bd af 14 de 3c a0 59 a4 3b e6 98 9f bc
       -0.077223636 0.027109472 0.005015567 -0.019482087
000320 1f ff 5b bd 30 14 b2 bc bf 10 5f bd ab 14 97 bc
       -0.0537101 -0.021738142 -0.05445933 -0.018442472
000330 00 e1 0f bb 20 ca 5b bc f4 ed 95 bc ab cd ab 3d
       -0.0021954179 -0.01341489 -0.018301941 0.083888374
000340 da 72 0d 3d a5 ef 11 bd 50 a5 97 bd 63 dc 7d bd
       0.03453336 -0.035628933 -0.07404578 -0.061977755
000350 8a 0f 80 3c 83 b3 96 3c ca b7 86 3b d0 6c 2b bc
       0.01563241 0.018396145 0.004111265 -0.010462955
000360 87 6b 8d 3d 50 0d 9a 3b 23 d2 98 bd 9f 18 7d bd
       0.06905275 0.004701294 -0.074619554 -0.06179106
000370 a8 42 46 3d fb 63 a0 3d fc 94 82 bd 55 80 ea 3b
       0.048403412 0.0783157 -0.06376073 0.0071564117
000380 fb 36 32 3d 07 6f c5 bc d7 ec a7 bc 0e 86 a6 bd
       0.043509465 -0.024100794 -0.020498676 -0.08131038
000390 a6 25 5c bd 1d b6 34 bd d0 9a 59 bc 7d ed 21 bd
       -0.05374684 -0.04411899 -0.013281539 -0.039533127
0003a0 90 68 99 bc 5a a4 c5 bc d3 5b 74 bd 5c e1 38 bd
       -0.018726617 -0.02412622 -0.059657883 -0.045136794
0003b0 1d 44 86 3d a2 7b 48 bd e7 9a 8e 3d 0b 5d bc bd
       0.0655596 -0.04894603 0.06963139 -0.09197434
0003c0 4f 55 87 bd d7 4d 47 bd 15 e1 8c 3d 1b 9c a1 bd
       -0.06608068 -0.04865822 0.068788685 -0.07891103
0003d0 6a f4 4e 3d 11 f6 d7 bb e2 8a 30 3d 4d 52 a4 bd
       0.05052606 -0.0065906127 0.0431012 -0.0802351
0003e0 9d 28 a5 3d a2 b5 5f 3d 9a 6a a2 bd 2d 67 8e bd
       0.08064387 0.054616578 -0.07930489 -0.06953273
0003f0 b1 76 a7 bd 9d 44 49 bd ad ee a6 3d 2c 45 0e 3d
       -0.081769355 -0.0491377 0.081509925 0.034733936

net.2.bias f4 [128]
000000 8f 4c f2 bd 8e 6b 9f bd 57 6b 45 be e7 30 02 3f
       -0.11831009 -0.07784186 -0.19279228 0.5085587
000010 65 4e 9c bd e7 aa 87 be cf 9b ad 3d f3 89 06 3d
       -0.0763214 -0.26497576 0.08476984 0.032846402
000020 3f 94 ae bd 92 cf d6 3d a2 71 49 bd 43 3b 11 3d
       -0.085243694 0.1048881 -0.049180634 0.035456907
000030 8a 38 32 bd ac 86 8d bd 1b 82 5d 3e 80 a6 0c ba
       -0.04351095 -0.06910452 0.21631663 -0.00053653866
000040 54 b9 bf bd 16 39 ec 3c 58 b3 ad bd 68 a1 4d bc
       -0.093615204 0.028835814 -0.08481473 -0.012550689
000050 fd 13 00 3d dd e7 35 be be 44 4d bd 11 9a a4 bd
       0.031269062 -0.1776423 -0.050114386 -0.08037198
000060 2e 37 08 3e 50 0f 6d bc da f4 58 be 98 06 65 bc
       0.133023 -0.014468983 -0.21187153 -0.013978623
000070 49 83 10 3e f2 cf 3f 3d 76 29 a7 bd 09 35 6f 3e
       0.14112581 0.04682917 -0.08162205 0.23360075
000080 99 3a a0 bd cb 93 3a 3e 1f 44 43 bd bc 05 3d 3d
       -0.078236766 0.18220441 -0.047672387 0.046148047
000090 71 c3 93 3d 72 1c 61 bd b0 dd b8 3d e3 59 4f 3e
       0.07215012 -0.05495877 0.090266585 0.20249133
0000a0 78 02 d0 3c 01 8b 85 bd 9e 5a 34 3d 41 2b 0e 3e
       0.025391802 -0.065206535 0.04403173 0.13883688
0000b0 32 0c 01 be 85 79 b6 3c 8a d6 30 be f4 5c f0 3b
       -0.12602308 0.022274742 -0.1726934 0.0073352996
0000c0 a4 bf b7 3c 2a b2 95 3e c9 fa 6d 3d 33 4c a4 3b
       0.022430249 0.2923749 0.058100495 0.0050139665
0000d0 1a 70 47 3d de 5e 69 bd 44 5a da 3c 5e 28 e7 bd
       0.048690893 -0.056975238 0.02665437 -0.11286996
0000e0 a2 40 8f bd 01 30 0a 3e 42 06 c0 bc 92 f4 9d bd
       -0.069947496 0.13494875 -0.023440484 -0.07712664
0000f0 cf 90 82 be f3 18 07 be a2 2c 28 3d 19 f0 dc 3b
       -0.25501105 -0.13193111 0.04105819 0.006742489
000100 80 5e 36 ba 3c b5 41 be 9d 0b a4 bc 78 2a 11 bc
       -0.00069568306 -0.18916792 -0.020025069 -0.008860223
000110 33 4b 1c 39 40 ae d3 bd d7 7f a7 3c 38 3b b3 bb
       0.00014905333 -0.1033597 0.020446701 -0.005469706
000120 4b 05 1c 3d 71 48 0d 3d 66 12 a0 bd d7 eb ad bc
       0.038090985 0.034492914 -0.07816009 -0.021230621
000130 9a 24 32 bd 7a 21 86 3d 36 17 ad 3c 71 d1 6d 3c
       -0.043491937 0.06549354 0.021129232 0.014515267
000140 3b 6d ba bd 60 e2 ae bd 4d 08 1a be be 7a f4 bd
       -0.09102865 -0.08539271 -0.15042229 -0.11937474
000150 6f 2d 4f 3d 95 6d 23 3c b4 22 02 be 90 8a cf bd
       0.05058044 0.009974857 -0.1270855 -0.101338506
000160 b0 a9 7a bd bf 63 cd 3b 94 f2 d9 bd 69 8e 7e bd
       -0.061196983 0.006267994 -0.10641971 -0.06214753
000170 c7 5a 94 bc c0 23 94 3d 85 ac c0 3d 35 4f 1c 3d
       -0.018109692 0.07233381 0.094079055 0.038161475
000180 dd 64 89 3c 1f 94 4d bd c0 b3 01 be c9 27 d5 bc
       0.016771728 -0.050190087 -0.12666225 -0.026019948
000190 40 19 47 bd 35 e9 1f bc be 55 87 bd d4 80 34 be
       -0.048608065 -0.009760191 -0.06608151 -0.17627269
0001a0 ff 1b 2f 3e 18 7b 95 bd 58 88 7f bc 4d 2f b7 be
       0.17100523 -0.07298869 -0.015596472 -0.35778275
0001b0 87 fd 93 3d 5f 93 dd 3d b8 fa 30 bf 84 58 8a bd
       0.07226091 0.108191244 -0.69132566 -0.06755164
0001c0 a4 0d c5 3c f4 96 c2 bc 26 ca dc 3e 54 cc d0 bc
       0.024054356 -0.02375362 0.43122977 -0.025488056
0001d0 70 fd fb 3d 5a c6 f4 bd e1 ea a6 3e 92 88 fb bd
       0.12304199 -0.11951895 0.32601073 -0.12281908
0001e0 fa fd ce bd 02 76 de bc 4d 13 e1 3b 6a bb f1 bd
       -0.10107036 -0.02715588 0.006868756 -0.118033245
0001f0 7e d4 e2 3d 3a e3 93 3e 1f c2 b4 bd 36 ee 8b bd
       0.11075686 0.28884298 -0.08826088 -0.068325445

net.4.weight f4 [2, 128]
000000 ba e0 49 bc dc c7 c1 bc 7d 02 cb bc 6c eb d8 3b
       -0.012321645 -0.02365487 -0.02478146 0.0066198613
000010 27 0a 69 3a f6 a4 fd 3b 6b 99 cb 39 65 ae 0c bd
       0.00088897574 0.007740612 0.00038833483 -0.034346003
000020 b8 c2 f5 3c df c5 40 3c 0a 35 80 bc 95 93 d2 bc
       0.030000076 0.011765926 -0.015650291 -0.025705138
000030 06 c9 f9 3c 77 c0 0c 3d 13 7e 41 bc 43 25 5c bd
       0.030491363 0.034363236 -0.011809844 -0.053746473
000040 2d 53 b4 3c 2c ed 5b 3d 39 04 95 bd 53 aa 99 3d
       0.022012318 0.05369298 -0.07276196 0.0750319
000050 9e 25 3e 3d ce 98 2f 3b fa 9d f7 bc d0 de 7b bd
       0.046422593 0.002679396 -0.030226696 -0.061491787
000060 2c 9e ab bd 80 f3 88 3c 24 dc c9 3c d0 31 01 3d
       -0.08379778 0.016717672 0.024641104 0.031541646
000070 78 e7 a0 3c 24 ac 5d 3c 80 1d b3 bb 74 43 ce bc
       0.019641623 0.013529811 -0.005466163 -0.025178649
000080 54 ba 99 bd 3a 45 59 38 b4 5d 8a bc 70 c7 fa bb
       -0.075062424 5.1801304e-05 -0.016890384 -0.0076531693
000090 bc e6 8f 3c fd 7d 48 3d c6 50 c9 3c 34 73 d0 3c
       0.017566077 0.048948277 0.024574649 0.025445558
0000a0 36 96 19 3d e0 16 d7 bb 95 c8 31 bc b5 0b 01 3c
       0.037496768 -0.006564006 -0.010851045 0.007876326
0000b0 fc 9e f2 3c c9 a9 f3 bc 05 07 8b 3c eb fc b3 bc
       0.029616825 -0.029744046 0.01697112 -0.021971187
0000c0 40 7e 53 3c b2 87 f2 bb 14 3a 60 bb 75 d3 94 bc
       0.012908518 -0.00740143 -0.0034214305 -0.018167237
0000d0 f1 3c 6c bd c8 75 49 bc 7b de 80 bd cd e1 c0 bc
       -0.057675306 -0.012296148 -0.06292435 -0.02354517
0000e0 a2 7f 79 bd ba 7e f2 bb 0e 29 93 3c 43 ec 35 3c
       -0.060912736 -0.007400361 0.017963912 0.011103692
0000f0 39 10 63 bc 74 b4 78 3b 11 7e 06 3d 0f f6 21 bd
       -0.013858848 0.0037949355 0.03283507 -0.0395413
000100 4e ab 33 bd eb bd e4 bb 82 a0 63 3d 02 bc 37 3d
       -0.04386454 -0.006980648 0.055572994 0.044857033
000110 a6 f6 dd ba 1a 21 2d 3b 98 be b5 3c 48 f9 0a 3c
       -0.0016934469 0.0026417435 0.022185609 0.008482285
000120 fe ed 67 3d 19 52 0c bd f7 72 d5 bc 69 7e 84 bb
       0.05662345 -0.034257982 -0.026055796 -0.0040433896
000130 8e da d7 bb 42 6b 5c 3d ea 6a 17 bb 17 c8 20 3d
       -0.006587333 0.053813227 -0.0023104497 0.03925332
000140 31 04 14 3d bc 31 19 bc b4 86 ad bb be e0 f1 ba
       0.03613681 -0.0093502365 -0.005295599 -0.0018453819
000150 3f c5 1f bc 57 46 49 3b e7 af f3 bc 81 86 3b bc
       -0.009751617 0.0030712092 -0.029746963 -0.011445642
000160 27 b2 16 3c 2a 1c b5 37 c8 ec b2 bc ed 84 2e bb
       0.009197748 2.1589996e-05 -0.021841422 -0.0026629523
000170 53 11 98 bd 26 c8 83 bd 62 51 45 3d b7 e9 16 3b
       -0.07425179 -0.0643466 0.048173316 0.0023027488
000180 6d 3b 9b ba c5 ab ad 3a 6e 85 fa bb 19 ae be bc
       -0.0011843272 0.0013250044 -0.0076453006 -0.023276376
000190 5d 26 fa bc e6 b3 98 3b 34 45 08 bd 39 22 2b 3b
       -0.030535871 0.0046601174 -0.033269122 0.0026112928
0001a0 61 f8 da bc a3 5c f9 bc 9a 6e 48 3d 0d 73 e6 3c
       -0.026729764 -0.03043968 0.048933603 0.028131032
0001b0 bb cc b0 3a dc cf d5 3c cb 62 a4 3b a5 58 02 bd
       0.0013488749 0.026100092 0.00501666 -0.03182282
0001c0 1c 59 aa bd 25 7a 0a ba 4b 1b 69 bc 30 c7 dd bb
       -0.083177775 -0.0005282483 -0.014227699 -0.0067681298
0001d0 3e 51 aa bc 80 7e 02 bc bb cb 9a bb 3a 72 cd 3c
       -0.020790692 -0.00796473 -0.0047239936 0.025078882
0001e0 54 fd b9 bc b4 c0 8f bd 7c ff a0 bd c9 d8 38 ba
       -0.022703804 -0.07019177 -0.0786123 -0.00070513465
0001f0 f0 1b fe 3b 6c e9 3a bb a9 0c 20 3d 00 43 96 39
       0.0077547953 -0.0028520478 0.039074574 0.00028660148
000200 97 c3 d5 3c 5f 71 e0 bc 9e e4 ad bc ff c7 06 3c
       0.026094241 -0.02739781 -0.021227177 0.008226394
000210 d8 88 0f 3c fa 71 57 3c de dc e4 bc 18 ea 89 bd
       0.008760653 0.013149733 -0.027937349 -0.06734103
000220 0a fc 6a 3d ee 1e 83 bb 17 c7 33 3c 6b 30 a8 bb
       0.05736927 -0.00400149 0.01097276 -0.005132725
000230 3d db cb 3c 54 78 25 3c bc 85 b1 bc 4c fa 86 3c
       0.024884814 0.010099489 -0.021670215 0.016476773
000240 3c 01 4c 3b 57 ba ea 3b f2 dd 59 bd 97 6f 26 bd
       0.0031128665 0.0071633267 -0.05319018 -0.040633764
000250 7e 57 a8 3c 71 76 92 3c 3c 7a a2 bb 12 d4 c3 3c
       0.020549532 0.017878743 -0.004958419 0.023904834
000260 9b 53 42 3e d2 ae fe bc d9 bd ed ba a0 a5 4d bd
       0.18977205 -0.03108922 -0.0018138244 -0.05020678
000270 c1 a2 33 bb 09 5e b4 bd be 8e 75 3d 4b ac 85 bc
       -0.0027410241 -0.08806998 0.059950583 -0.016317507
000280 aa ed 68 3c 64 ec 53 ba c2 f4 19 3d da cd 74 bb
       0.01421682 -0.0008084236 0.037586935 -0.0037354142
000290 c4 06 85 bc b1 3c 2f 38 24 ed f8 bc 41 a0 f2 3d
       -0.016238578 4.1779775e-05 -0.030386515 0.11846972
0002a0 0c 67 fa 3c 60 ab 28 bd e3 c9 a4 3b b8 9f 79 3c
       0.030566715 -0.04117906 0.0050289496 0.015235834
0002b0 8a 59 22 3a af a3 ae bc fe bb 46 bc 5b 85 67 3d
       0.0006193152 -0.021318285 -0.012129782 0.056523662
0002c0 e0 d7 d4 3c 8c 7b 08 bd 7f c2 85 bb 8f c5 a3 bc
       0.025981843 -0.03332095 -0.0040820236 -0.019991664
0002d0 14 56 80 3c 36 41 ff 3c 84 0c e9 3c 4b f5 aa 3c
       0.015666045 0.031159025 0.02844835 0.020868918
0002e0 52 a7 7c 3c c1 a4 4f bc 9e 2d 05 3d cc f4 b7 3c
       0.015420752 -0.012673558 0.032514207 0.022455595
0002f0 33 6c 71 bc 99 b3 ef 3b 5a e3 38 3d 66 15 6f 36
       -0.014735269 0.007315111 0.045138694 3.562623e-06
000300 7c 5f 02 bd 2e 9c 19 3d c2 c8 6a bc 06 57 2d 3d
       -0.031829342 0.03750246 -0.014330091 0.04231932
000310 00 3e 0e 3c 6f f5 f2 3c 8a 3a 17 bd 9b 1d 5a 3a
       0.008681774 0.029658047 -0.03692106 0.00083204516
000320 28 0c 2d bd bf 1a 8d 3c e2 40 80 bb 63 17 30 3b
       -0.04224792 0.017224668 -0.0039139846 0.0026869408
000330 c1 e1 86 3b 2f fc 02 bd 93 3e 5f bd 1c 35 22 bb
       0.0041162674 -0.031978782 -0.054503035 -0.0024750894
000340 15 c1 1b 3d 1b 90 b4 bd 95 cd 52 bc 9b 54 e1 bc
       0.038025934 -0.088165484 -0.012866397 -0.027506163
000350 e6 e4 c4 bc f8 b9 59 bb 15 e2 06 bd 7a 29 90 bc
       -0.024034929 -0.0033222418 -0.032930452 -0.017597903
000360 a6 d4 da b9 8d a8 90 3c f5 f8 8c 3b 89 a6 27 bb
       -0.00041738636 0.017658496 0.004302139 -0.002558144
000370 6a 54 6d 3a c6 c2 92 bd cb 92 b8 3b 5c 57 df 3c
       0.0009053411 -0.07166056 0.0056327335 0.027263336
000380 3b b5 d8 bc b4 a4 c2 bc 5a 39 78 3d d4 d0 b1 bc
       -0.026453605 -0.023760177 0.06060157 -0.021706022
000390 5e 36 c6 bc ef 4b 7e bd 58 f8 08 bc fa d8 a5 3c
       -0.024195846 -0.062084135 -0.008359991 0.020245064
0003a0 b9 f7 e4 bc a3 8a fe bb 78 ef a5 3c 39 94 f1 3c
       -0.027950155 -0.0077679916 0.02025579 0.029489623
0003b0 76 0f 8a bc bc 17 a9 3d 8c 68 8c bb 6b ec df 3b
       -0.016853075 0.0825648 -0.004284924 0.006833603
0003c0 b0 d2 dc 3b 0d 43 74 3a f8 2c cd bc 01 d6 71 bd
       0.006738983 0.00093178527 -0.025045857 -0.05904198
0003d0 b2 1f 27 bc 70 12 bc bc 83 5e d2 bc 1f 1f 8a 3a
       -0.010200428 -0.02295801 -0.025679832 0.0010537839
0003e0 d9 88 d8 bb 76 54 aa 3d 93 0d 49 bb db a0 12 bb
       -0.0066081104 0.08316891 -0.0030678257 -0.002237371
0003f0 c8 56 5a 3d 1a b1 81 bc 8c 04 2b bc f1 73 82 bc
       0.053305417 -0.015831519 -0.010438096 -0.015924426

net.4.bias f4 [2]
000000 12 c7 c5 42 22 8d c7 42
       98.88881 99.77565
