rl_agent/model.pt (torch, 73345 bytes, 6 tensors)

net.0.weight f4 [128, 5]
0	0xbed645cc	-0.41850126
1	0x3e3cf783	0.18453793
2	0xbef17ab5	-0.4716393
3	0x3d081773	0.033225488
4	0x3e699158	0.2280935
5	0xbee08f7b	-0.43859467
6	0xbe701af4	-0.23447782
7	0x3e377a44	0.17917734
8	0x3e23ac14	0.15983611
9	0xbe448658	-0.19191873
10	0xbe1cd96c	-0.15317315
11	0xbd9c7c4c	-0.07640895
12	0xbcc54400	-0.024080276
13	0x3e41703c	0.1889047
14	0xbedf0821	-0.4356089
15	0xbf2471cc	-0.6423614
16	0x3d8a3095	0.067475475
17	0xbf084f8a	-0.53246367
18	0xbecb187b	-0.39667115
19	0xbe52690c	-0.20547885
20	0xbdea1dac	-0.11431441
21	0xbe20c4d0	-0.15700078
22	0xbe3e8ae6	-0.18607673
23	0xbd7a6340	-0.06112981
24	0x3e855fc8	0.26049638
25	0xbeca5e86	-0.3952524
26	0xbeb3e8ea	-0.35138637
27	0xbe2d2a08	-0.16910565
28	0x3ebb0398	0.3652618
29	0xbed99e5b	-0.42503628
30	0xbca2e960	-0.019886672
31	0xbeb89fa3	-0.36059293
32	0xbc12e5c0	-0.0089659095
33	0x3d9b7928	0.07591468
34	0xbe34c09a	-0.17651597
35	0xbf478619	-0.7793899
36	0xbe1c84c3	-0.1528502
37	0x3edef0b1	0.43543008
38	0xbf123e3d	-0.5712622
39	0x3e2c7dc0	0.16844845
40	0x3edde548	0.4333899
41	0xbe9d0ffc	-0.30676258
42	0xbeb5f13d	-0.35535613
43	0xbe90185d	-0.28143588
44	0x3d82f6d8	0.06394738
45	0xbe46a196	-0.19397578
46	0xbe002a82	-0.12516215
47	0xbc57b2a0	-0.013165146
48	0x3b7ed300	0.003888309
49	0x3e96024e	0.29298633
50	0x3c5b3fe6	0.013381934
51	0xbb7fcd8c	-0.0039032428
52	0x3d959f37	0.073057584
53	0xbce7b912	-0.02828649
54	0x3d1917e8	0.037376314
55	0xbe87a18a	-0.26490432
56	0xbded4876	-0.115860865
57	0x3e9a6b82	0.30160147
58	0xbec81cf1	-0.3908458
59	0xbdff1144	-0.12454465
60	0x3e95b86a	0.2924226
61	0xbe200304	-0.1562615
62	0xbd99f1b8	-0.07516807
63	0x3db0bcc8	0.08629757
64	0x3d590f80	0.052993298
65	0x3e7938ac	0.24338025
66	0xbea88b7d	-0.3291892
67	0xbe0288c4	-0.12747484
68	0xbe47eaa6	-0.19523105
69	0xbd247998	-0.040155023
70	0x3eb32434	0.34988558
71	0xbf529b98	-0.8226867
72	0x3e3f8346	0.1870242
73	0xbe4156bc	-0.18880743
74	0xbd9e8444	-0.077400714
75	0xbf21825b	-0.6308953
76	0x3dc45ec3	0.09588387
77	0x3d98a862	0.074539915
78	0xbd82cc85	-0.06386665
79	0xbead06cb	-0.33794245
80	0x3e130d50	0.14360547
81	0xbd809b63	-0.06279638
82	0x3e9c155f	0.30485055
83	0x3bdadfee	0.0066795265
84	0x3e85fece	0.26170963
85	0xbbf37840	-0.0074301064
86	0xbf2e9db0	-0.6820936
87	0x3e1b83b4	0.1518696
88	0xbeb4fbdc	-0.35348403
89	0xbd259d40	-0.04043317
90	0xbeb8c037	-0.36084148
91	0x3eae6829	0.34063843
92	0x3ec82d6c	0.39097154
93	0xbeadce5b	-0.339465
94	0xbeb92726	-0.3616268
95	0x3e327805	0.17428596
96	0x38d1b344	9.9992874e-05
97	0xbee3af24	-0.4446956
98	0xbe2eee49	-0.17083086
99	0x3e275200	0.16339874
100	0x3e6705db	0.22560827
101	0x3e8078d4	0.25092185
102	0xbed9dd13	-0.4255148
103	0x3eb3f6af	0.35149142
104	0xbe76d2ec	-0.24103898
105	0x3f1588a7	0.5841164
106	0x3eb5d9ca	0.35517722
107	0xbd512a88	-0.05106595
108	0x3ee01e7c	0.43773258
109	0x3e0289bc	0.12747854
110	0x3eb50774	0.3535725
111	0xbd40c2f0	-0.047060907
112	0xbe57d56c	-0.21077508
113	0xbe9c5d54	-0.30539954
114	0x3cd12230	0.025528997
115	0x3dea0c38	0.11428112
116	0xbf159f5d	-0.58446294
117	0x3e06b8b5	0.13156398
118	0x3ea3b9fc	0.31977832
119	0x3da41ee0	0.080137014
120	0x3f0fa265	0.5610717
121	0x3e716348	0.23573029
122	0xbcbe63ba	-0.023240913
123	0x3e6cfc14	0.23143035
124	0xbc9bb6c0	-0.01900804
125	0x3e8dbb26	0.27681845
126	0xbec813b9	-0.39077547
127	0xbe992edc	-0.29918563
128	0xbca87d70	-0.020567626
129	0xbc1f5700	-0.009725332
130	0xbdf3adf8	-0.11898416
131	0xbf1eea39	-0.62076145
132	0x3e104acf	0.14091037
133	0x3cbf5260	0.02335471
134	0xbe2c532c	-0.16828603
135	0x3ec6067a	0.38676816
136	0xbe843d79	-0.2582815
137	0x3c37559e	0.011189846
138	0x3db143f8	0.08655542
139	0xbd4b7ff8	-0.049682587
140	0x3f01c680	0.5069351
141	0x3e18ca0a	0.14920822
142	0x3e7b1816	0.24520907
143	0x3f050fcb	0.51977223
144	0xbd2df6f0	-0.042471826
145	0xbef26571	-0.4734302
146	0x3df9e110	0.122011304
147	0xbe4bd3de	-0.1990504
148	0xbf8483b9	-1.0352699
149	0xbdf39e10	-0.118953824
150	0xbf3c106a	-0.73462546
151	0x3e98a3b1	0.29812387
152	0xbdd6bb08	-0.10484892
153	0xbf852bae	-1.0403955
154	0xbde2fd2c	-0.11083445
155	0xbefda188	-0.495373
156	0x3eb54d1f	0.354104
157	0xbda6c98d	-0.081439115
158	0xbeae1c70	-0.3400607
159	0x3e34ac9c	0.1764397
160	0xbf22616d	-0.6342991
161	0x3c144645	0.009049957
162	0xbeeca34b	-0.46218333
163	0xbe7cb0ff	-0.24676894
164	0x3e7d7b74	0.24754125
165	0xbec1c9e7	-0.37849352
166	0x3cc883a7	0.02447684
167	0x3e45e043	0.1932383
168	0xbf66f868	-0.9022279
169	0x3e10ae38	0.14128959
170	0xbf1b239d	-0.60601217
171	0x3e3b6494	0.18300086
172	0xbea123cc	-0.31472623
173	0xbe612b9a	-0.21989289
174	0x3c880a30	0.01660642
175	0xbebd234e	-0.36940998
176	0xbeca156c	-0.3946947
177	0xbdd084c8	-0.10181576
178	0xbeb35968	-0.3502915
179	0xbe1f6bce	-0.15568468
180	0x3deb8d40	0.11501551
181	0xbe908939	-0.28229693
182	0xbee173fd	-0.44033805
183	0xbe169740	-0.14706135
184	0x3e4bb318	0.19892538
185	0xbf685c1a	-0.90765536
186	0xb7518be8	-1.2489945e-05
187	0xbda41214	-0.08011261
188	0xbf359cf3	-0.7094261
189	0x3c0c2740	0.00855428
190	0xbd5a2fe8	-0.053268343
191	0xbd3d2a40	-0.04618287
192	0xbe5990b1	-0.21246602
193	0xbc626b60	-0.0138195455
194	0x3ed61a64	0.4181701
195	0x3ee04b48	0.43807435
196	0xbd7eea68	-0.062235266
197	0xbedbad74	-0.42905772
198	0xbe3f93a2	-0.18708661
199	0x3d1784a0	0.036991715
200	0x3e98a3c0	0.2981243
201	0xbe95d178	-0.29261374
202	0xbeacf6b2	-0.33781964
203	0xbdc712ac	-0.09720358
204	0xbe7a469a	-0.24440995
205	0x3eeb2872	0.45929295
206	0x3e755b6c	0.23960656
207	0xbec2bf2d	-0.3803648
208	0x3eaaace6	0.33335036
209	0x3e87a43a	0.26492482
210	0x3f82a78d	1.0207382
211	0x3d193cc7	0.037411477
212	0xbddcf27d	-0.107884385
213	0x3f4cc499	0.79987484
214	0xbea95ebe	-0.33080095
215	0xbf057b2f	-0.5214109
216	0x3e7536d3	0.23946695
217	0xbec33a05	-0.38130203
218	0x3e34c3ae	0.17652771
219	0x3d838468	0.06421739
220	0x3ee7e6ea	0.4529336
221	0xbc1cca9d	-0.009569791
222	0x3e65b7f9	0.22433461
223	0x3f1cd739	0.61265904
224	0x3d93ddf8	0.072200716
225	0xbe5ce43c	-0.2157144
226	0xbe2dc54e	-0.16969797
227	0x3e03b21a	0.12860909
228	0xbc8d6cf3	-0.017263865
229	0x3eb086ee	0.34477943
230	0x3dd4ae58	0.10384816
231	0xbcbe8400	-0.023256302
232	0xbe05c14a	-0.13062015
233	0x3e33921c	0.17536205
234	0x3dfb4620	0.12269235
235	0xbe5ecba1	-0.21757366
236	0x3aedf0ac	0.0018153391
237	0x3d941450	0.07230437
238	0xbe52a154	-0.20569354
239	0xbe1e7478	-0.15474117
240	0xbea7695b	-0.32697567
241	0x3cbd0160	0.023071945
242	0xbef52293	-0.4787794
243	0x3f09ddea	0.5385424
244	0x3d4e1480	0.05031252
245	0xbd5a8436	-0.053348742
246	0x3eb96ea5	0.36217228
247	0x3e7bab84	0.24577147
248	0x3ecc278d	0.39873925
249	0x3dee23e8	0.11627942
250	0xbf116999	-0.56801754
251	0x3e5cf81b	0.2157902
252	0xbeafc1f6	-0.34327668
253	0xbf565197	-0.83718246
254	0xbeaea4e4	-0.34110177
255	0xbbd5a935	-0.006520415

net.0.bias f4 [128]
0	0xbeee8005	-0.46582046
1	0xbf11d03d	-0.5695837
2	0x3e17a5e0	0.1480937
3	0xbf7f3ce2	-0.99702275
4	0x3e8987d0	0.2686143
5	0x3d1c2370	0.038119733
6	0xbe81ddbe	-0.25364488
7	0xbf15d048	-0.58520937
8	0xbd175178	-0.03694293
9	0x3e37ba6c	0.17942208
10	0xbec78a69	-0.38972786
11	0xbe763fb4	-0.24047738
12	0xbe7d4f54	-0.24737293
13	0x3c639760	0.013891071
14	0x3f01fa05	0.50772125
15	0x3de29b82	0.11064817
16	0x40255d7d	2.583831
17	0x3f041a99	0.51603085
18	0xbde955f1	-0.11393345
19	0x3ed7d67e	0.42155832
20	0xbec278b9	-0.3798273
21	0xbf0cf15c	-0.55055785
22	0xbe04e820	-0.12979174
23	0xbd418203	-0.04724313
24	0xbf28b299	-0.6589752
25	0x3d28e510	0.041234076
26	0xbe751e53	-0.23937349
27	0x3dd3fc20	0.103508234
28	0xbef978d1	-0.48724988
29	0x3e86e1f6	0.2634427
30	0x3f2fc7a9	0.6866403
31	0x3f0306c9	0.5118223
32	0x3f1f58a6	0.6224464
33	0xbec3a8b7	-0.38214657
34	0x3f168b3e	0.58806217
35	0xbee2cc09	-0.4429629
36	0xbeae6981	-0.34064868
37	0xbe667f51	-0.22509505
38	0x3e8c5248	0.27406526
39	0x3ea28d4e	0.31748432
40	0xbe646637	-0.22304617
41	0x3d669427	0.056293633
42	0xbf15df5a	-0.5854393
43	0x3eb6fdb9	0.3574045
44	0xbed2580c	-0.410828
45	0xbdbae8db	-0.09126445
46	0x3dfd2e00	0.123622894
47	0x3e802e6c	0.25035417
48	0x3ee5c327	0.44875452
49	0x3f5abb57	0.8544211
50	0x3f1b7f2b	0.6074092
51	0xbeedbeb2	-0.4643455
52	0x3e6d5dc3	0.23180299
53	0x3ecadebe	0.39623064
54	0x3e95a47a	0.29227048
55	0x3e5a9d54	0.21349078
56	0xbf7d1af4	-0.9886925
57	0x3dc378b8	0.0954451
58	0x3f05ed93	0.52315634
59	0xbf4f1493	-0.8089077
60	0x3d809b4e	0.06279622
61	0xbf89b838	-1.0759344
62	0xbd97f808	-0.07420355
63	0x3cf7c00b	0.03024294
64	0x3ea1f8e6	0.31635207
65	0xbe8815fd	-0.26579276
66	0x3ebf64f9	0.37381724
67	0x3e97c328	0.2964108
68	0x3e85321a	0.26014787
69	0x3ee7c6a5	0.4526874
70	0x3e2fbb83	0.17161374
71	0xbe89f102	-0.26941687
72	0x3ebb62a4	0.36598694
73	0xbdb4dc78	-0.088311136
74	0xbf3f9202	-0.74832165
75	0xbf4f94ff	-0.81086725
76	0x3ea15746	0.31511897
77	0x3f2d326c	0.6765506
78	0xbdb59e30	-0.088680625
79	0x3e85cc0e	0.26132244
80	0x400543dc	2.0822668
81	0x3f61050c	0.87898326
82	0x400fed4e	2.248859
83	0xbe9d2f90	-0.3070035
84	0x3f00e42c	0.5034816
85	0x3e3b7d60	0.18309546
86	0x3d7d8194	0.061891153
87	0x3f1193b4	0.56866
88	0x3d45b248	0.048265725
89	0x3d8f2c84	0.069909126
90	0xbe00d97a	-0.1258296
91	0x402dcd21	2.715645
92	0xbfa80635	-1.3126894
93	0xbe064d8c	-0.1311552
94	0xbe2d93d4	-0.16950923
95	0xbf4150b5	-0.75513774
96	0x3f54d202	0.83132946
97	0x3e9f4690	0.31108522
98	0xbe138cff	-0.14409254
99	0xbf04c22c	-0.5185878
100	0xbd7aec91	-0.061260764
101	0xbf9d7b6b	-1.2303289
102	0xbe947794	-0.2899748
103	0xbe897894	-0.26849806
104	0xbf2275d5	-0.6346105
105	0x3f3da892	0.7408534
106	0x3f2d40c2	0.6767694
107	0x3f4f7db8	0.81051207
108	0x3ed88342	0.42287642
109	0xbdb4ac2c	-0.08821902
110	0x3ece9a9e	0.4035234
111	0x3f21c0ca	0.631848
112	0x3e56c197	0.20972286
113	0x400ef3bc	2.2336264
114	0x3f4b573b	0.7942998
115	0xbed988be	-0.42487139
116	0x3f482374	0.781791
117	0x3f980b18	1.1878386
118	0xbf1fca98	-0.6241851
119	0xbec35921	-0.38153937
120	0xbf2462eb	-0.64213437
121	0xbeac82b4	-0.3369347
122	0x3ed64145	0.41846672
123	0xbd76d5b8	-0.06026241
124	0x3eb70f12	0.35753685
125	0x3e9aee39	0.30259874
126	0xbf613bfa	-0.8798214
127	0xbfa5d9f8	-1.2957144

net.2.weight f4 [128, 128]
0	0x3c69db6e	0.0142735075
1	0xbd0339e9	-0.03203765
2	0xbcc4bb74	-0.024015166
3	0xbd5ce17f	-0.053925987
4	0x3d2cee52	0.042219467
5	0xbd4fbd97	-0.050717916
6	0x3d00027c	0.03125237
7	0xbe976657	-0.29570267
8	0xbcbb1824	-0.02283866
9	0x3acb3100	0.0015502274
10	0x3db0945d	0.08622048
11	0xbe2050c3	-0.15655808
12	0xbcb94fb0	-0.022621006
13	0x3cab74b4	0.020929672
14	0x3e07bb55	0.13255055
15	0x3d90a07b	0.07061859
16	0x3e00d70b	0.12582032
17	0x3d8ccee6	0.068754
18	0xbc8bd658	-0.01706998
19	0x3a9f9868	0.0012176158
20	0xbc635c5e	-0.0138770025
21	0x3d090e11	0.03346068
22	0xbda1106e	-0.07864462
23	0x3cc08c0f	0.023504285
24	0x3af85e5c	0.001894902
25	0x3db03869	0.086045094
26	0x3d6e88e4	0.058236018
27	0x3c79280b	0.015207301
28	0x3d729be0	0.059230685
29	0xbd46f1e3	-0.048570525
30	0xbd90fd08	-0.07079512
31	0xbd21a12b	-0.039460342
32	0xbd72120e	-0.05909925
33	0xbd5c663e	-0.053808443
34	0xbbf4375b	-0.007452888
35	0x3d0ebfa8	0.034850746
36	0x3d4f2722	0.05057443
37	0x3d1ab6ad	0.03777187
38	0xbd8497ca	-0.06474264
39	0xbc83bb44	-0.016080506
40	0x3d88c4fb	0.06678196
41	0xbceafb38	-0.028684244
42	0xbdaae565	-0.08344535
43	0xbc897d07	-0.01678325
44	0xbc92af5d	-0.017905885
45	0x3d1b47a3	0.037910115
46	0x3d360b62	0.04444445
47	0x3d925c97	0.07146566
48	0x3d34abf2	0.044109292
49	0x3d0bb45c	0.03410755
50	0x3ce255f2	0.027628873
51	0x3d53c913	0.05170543
52	0x3c8edb5b	0.017438581
53	0xbb85bcb1	-0.0040813317
54	0xbd2a5453	-0.041584324
55	0x3db42bd9	0.08797426
56	0x3cc66757	0.024219198
57	0x3d9e1055	0.07717959
58	0xbcf13bd6	-0.029447477
59	0xbe3492fd	-0.17634197
60	0x3da03bb1	0.07823885
61	0x3d8d7fdc	0.06909153
62	0xbca5dd5c	-0.020247154
63	0x3d812b7e	0.063071236
64	0xbc213488	-0.009839185
65	0x3d50a22e	0.050935917
66	0xbd310a5a	-0.043222763
67	0x3cdc36f4	0.026881672
68	0x3c0a8b80	0.008456111
69	0xbd7db377	-0.06193873
70	0xbd3863f1	-0.045017187
71	0xbd5e2bf8	-0.05424115
72	0x3d7a926c	0.061174795
73	0x3d44655e	0.047948234
74	0xbe8772fa	-0.26454908
75	0xbe22bcb0	-0.15892291
76	0xbc6940c8	-0.014236636
77	0xbd7280b2	-0.059204765
78	0x3db2b53c	0.08725974
79	0x3d331593	0.043721747
80	0xbba4eecb	-0.005033349
81	0xbcf5e393	-0.030015742
82	0x3e5442be	0.20728585
83	0x3bd4fa6b	0.0064995787
84	0x3d4f8d7a	0.050672032
85	0x3d1b5f02	0.037932403
86	0x3d881b76	0.06645863
87	0xbc8e9888	-0.017406717
88	0x3d134c26	0.035961293
89	0x3ce32a40	0.027730107
90	0x3d00376a	0.031302847
91	0x3e506598	0.20351255
92	0xbdeefbd0	-0.11669123
93	0x3d13deee	0.036101274
94	0x3be532ba	0.0069945725
95	0x3ca4b90c	0.020107768
96	0xbbf09765	-0.0073422664
97	0xbd40fe06	-0.047117256
98	0xbe7b9779	-0.24569501
99	0xbe88e06a	-0.26733714
100	0xbd7ca6a5	-0.061682362
101	0xbca145aa	-0.019686539
102	0x3d9dc701	0.077039726
103	0xbc583f28	-0.013198651
104	0xbd94bd2b	-0.072626434
105	0x3d9c1d5f	0.076227896
106	0x3d98e409	0.07465369
107	0xbd82f8b4	-0.063950926
108	0x3d8f676f	0.0700215
109	0x3d34bf66	0.044127844
110	0x3d97ffa2	0.07421805
111	0x3d8f6f87	0.07003694
112	0xbd28454f	-0.041081723
113	0x3de75fe9	0.1129759
114	0x3c1d4bb4	0.009600569
115	0xbdb5a16b	-0.08868679
116	0x3c3b0435	0.011414577
117	0xbdb99324	-0.09061268
118	0x3ceabcca	0.028654475
119	0x3d2bf455	0.04198106
120	0x3c27225d	0.010201064
121	0xbda5bc1a	-0.08092518
122	0xbd35c992	-0.044381686
123	0xbd82d748	-0.06388718
124	0xbdb229c2	-0.08699371
125	0xbd3a1f6e	-0.04544013
126	0xbe4e186f	-0.20126508
127	0x3d8c9ae0	0.068654776
128	0xbbd14e2f	-0.006387494
129	0x3d5715e6	0.05251112
130	0x3d3aa5ea	0.045568384
131	0x3b3ec896	0.0029111258
132	0xbd17833d	-0.036990393
133	0xbdb17655	-0.08665148
134	0x3d3b0ed6	0.045668446
135	0xbbac9cd0	-0.005267717
136	0x3ba66a50	0.0050785914
137	0xbda5a8ef	-0.08088862
138	0xbc450882	-0.012025954
139	0x3d2e98ce	0.042626195
140	0x3cd1b138	0.0255972
141	0x3d830f7f	0.0639944
142	0xbd80a4ca	-0.06281431
143	0x3d0d78be	0.034538977
144	0x3da28b44	0.07936719
145	0x3cfe72d0	0.031060606
146	0xbd1ab332	-0.03776855
147	0x3d180ffd	0.037124623
148	0xbcc3ff7c	-0.023925535
149	0x3d49e930	0.04929465
150	0x3cdb230c	0.02675011
151	0xbdb32f74	-0.08749285
152	0xbc5f79b8	-0.01363986
153	0x3ce85524	0.02836091
154	0xbbd6c950	-0.00655476
155	0xbd95e8c6	-0.07319789
156	0x3d616c84	0.05503513
157	0xbd067089	-0.032822166
158	0x3d707a91	0.05871064
159	0x3d99d458	0.075112045
160	0xbd8f46ad	-0.06995902
161	0xbd5e3808	-0.054252654
162	0x3c6accdb	0.014331068
163	0x3b7ed600	0.0038884878
164	0xbcb6ed80	-0.022330046
165	0x3d51b879	0.051201317
166	0x3c6df688	0.01452411
167	0x3d8b8091	0.068116315
168	0x3daa42d1	0.083135255
169	0xbd8a7bca	-0.06761892
170	0xbaec9482	-0.001804963
171	0xbc9ee47c	-0.01939606
172	0xbd8127f7	-0.06306451
173	0x3d9ace1f	0.07558846
174	0xbd0450b1	-0.032303516
175	0x3d5dec44	0.0541804
176	0x3d7243c1	0.059146646
177	0x395acadd	0.00020865673
178	0xbd255fb9	-0.04037449
179	0x3d3f83b4	0.04675646
180	0xbd5d5ebe	-0.05404543
181	0xba97c585	-0.0011579251
182	0xbc730daa	-0.014834801
183	0xbd9a8a37	-0.07545894
184	0x3d8f586d	0.06999288
185	0xbd3357f8	-0.043785065
186	0xbd104d06	-0.035229705
187	0xbd1ed8a1	-0.038780812
188	0xbda28eb2	-0.07937373
189	0x3d841ce9	0.06450827
190	0xbd0937ed	-0.0335006
191	0x3d7e15f6	0.062032662
192	0x3c9011a0	0.01758653
193	0x3d721bca	0.059108533
194	0x3d7e3b99	0.062068556
195	0xba6ddb62	-0.0009073523
196	0x3d3f9dc2	0.04678131
197	0x3da25780	0.079268456
198	0xbc6a50f3	-0.014301526
199	0xbd896e32	-0.06710471
200	0x3d890869	0.06691057
201	0x3c170d78	0.00921952
202	0xbd3376af	-0.043814357
203	0xbc53b310	-0.01292111
204	0xbd7c4996	-0.061593615
205	0xbd24bef2	-0.040221162
206	0xbda0c3fc	-0.07849881
207	0xbcaa0835	-0.020755867
208	0xbd9ae412	-0.07563032
209	0x3d9230db	0.07138225
210	0x3bff2410	0.0077862814
211	0x3c274899	0.01021018
212	0xbda88ea6	-0.08230333
213	0x3c2090a8	0.009800114
214	0xbcfcbb04	-0.030850895
215	0x3da6634c	0.08124408
216	0x3c5082b0	0.012726471
217	0xbd312b52	-0.043254204
218	0xbdaaeed7	-0.08346336
219	0xbd014d6b	-0.031567972
220	0x3ca5213c	0.020157449
221	0xbd87e402	-0.06635286
222	0x3c71fe30	0.014770076
223	0x3db0c5d8	0.08631486
224	0xbd55dbc6	-0.052211545
225	0x3be6f2e0	0.007047996
226	0x3db44353	0.088019036
227	0xbc0d12c8	-0.008610435
228	0x3d99d08b	0.075104795
229	0xbd168af7	-0.03675362
230	0x3d1c9eaa	0.03823725
231	0xbd018311	-0.031619135
232	0x3d30284f	0.04300719
233	0xbd487c25	-0.04894652
234	0xbc4e0670	-0.012574777
235	0xbb5278b9	-0.0032115413
236	0xbd95ac6a	-0.07308276
237	0x3d276b1e	0.04087364
238	0xbd0f4f6b	-0.03498785
239	0x3d2061d2	0.03915579
240	0xbd161a50	-0.036646187
241	0xbd8006cb	-0.06251296
242	0x3d77e002	0.060516365
243	0x3cf8161d	0.030283982
244	0xbcd2c5bc	-0.025729053
245	0xbd9aebc2	-0.075644985
246	0xbd4dc185	-0.050233383
247	0xbda74174	-0.08166781
248	0xbca8b3ad	-0.020593489
249	0xbda24404	-0.07923129
250	0xbd8722cc	-0.06598434
251	0xbd00a221	-0.03140462
252	0x3d9fd3b5	0.07804052
253	0xbd0a4673	-0.03375859
254	0x3d67859a	0.056523897
255	0x3d5398e5	0.051659483

net.2.bias f4 [128]
0	0x3e2f432c	0.17115468
1	0x3d124181	0.035707
2	0xbc382424	-0.011239085
3	0xbe29afd9	-0.16570987
4	0x3d988c49	0.07448632
5	0x3d3fd938	0.046838015
6	0xbe7491cf	-0.23883747
7	0x3c9f3ee6	0.019439172
8	0x3e11b0a9	0.14227547
9	0x3d2c83b2	0.042117782
10	0xbdaed7b7	-0.08537238
11	0x3eb4848a	0.3525737
12	0x3ea10f5b	0.31457028
13	0x3dde5bd9	0.10857362
14	0x3ea2101f	0.31652924
15	0xbd3d8ee8	-0.046278864
16	0x3e844f6b	0.2584184
17	0xbe50ca35	-0.20389636
18	0xbc1ec314	-0.009690065
19	0xbddffb14	-0.10936561
20	0xbc31c341	-0.010849775
21	0x3f52c0d1	0.82325464
22	0x3e96bd56	0.29441327
23	0xbeddcf5f	-0.43322274
24	0x3d93ac2b	0.07210573
25	0x3d5f19da	0.054468013
26	0x3f7bd3db	0.9837014
27	0x3d1ebbf5	0.03875347
28	0x3d22247e	0.039585583
29	0x3f0ce5fc	0.5503843
30	0xbce9aad4	-0.02852384
31	0xbd1fd477	-0.03902098
32	0xbd9ec441	-0.07752276
33	0xbdb1879c	-0.086684436
34	0x3d77220b	0.0603352
35	0xbd3bde91	-0.045866553
36	0x3d873adb	0.06603023
37	0xbccff376	-0.025384646
38	0x3b9cd2ad	0.0047858567
39	0x3d5e51e5	0.05427732
40	0xbbf31500	-0.007418275
41	0x3eab7f3f	0.3349552
42	0x3ea67952	0.32514435
43	0x3f0e475a	0.55577624
44	0xbcf16b58	-0.02947013
45	0x3f5eba47	0.87002987
46	0x3d82a233	0.06378593
47	0x3c5c4573	0.013444292
48	0x3d9c129f	0.07620739
49	0x3ce72d14	0.028219737
50	0xbd8ba941	-0.06819392
51	0xbd41b6b5	-0.047293384
52	0xbcbaed2c	-0.02281817
53	0x3c645477	0.013936154
54	0x3f3108ef	0.69154257
55	0x3d84e661	0.06489254
56	0x3ed60d8d	0.41807213
57	0x3ef0ad05	0.47007003
58	0x3e0731b1	0.1320255
59	0x3ec20a07	0.37898275
60	0x3c22e8cd	0.009943199
61	0xbd3a3dc7	-0.04546907
62	0xbd79af0a	-0.060957946
63	0x3d056ec2	0.03257633
64	0x3f775bc3	0.9662439
65	0xbd10acdc	-0.0353211
66	0xbd8c91be	-0.068637356
67	0x3f1da6aa	0.61582434
68	0x3c761457	0.015019498
69	0x3eb34b03	0.35018167
70	0xbc111bf8	-0.008856766
71	0xbe0b4cf8	-0.1360358
72	0xbc9f3494	-0.01943425
73	0xbc6b7e72	-0.014373409
74	0xbe02a590	-0.1275847
75	0xbdc9bef2	-0.09850873
76	0x3d7b9a8e	0.06142669
77	0xbbd7879f	-0.0065774466
78	0xbc355eb4	-0.011069942
79	0xbda0dda6	-0.07854776
80	0x3cbdd9b0	0.02317509
81	0x3f701f13	0.93797415
82	0xbd81a774	-0.06330767
83	0xbd1c6bbf	-0.038188692
84	0xbe89d361	-0.26919082
85	0xbd028ebd	-0.031874407
86	0x3cdf9fc4	0.027297862
87	0xbd8d9269	-0.06912691
88	0x3d99d80b	0.0751191
89	0x3ece879a	0.4033783
90	0x3df9d26c	0.12198338
91	0x3d40bd57	0.04705557
92	0x3c514902	0.012773754
93	0xbcaa5f20	-0.020797312
94	0xbcf6a5f2	-0.030108426
95	0x3c927ff8	0.017883286
96	0x3db333bb	0.08750101
97	0x3d9e951b	0.07743283
98	0xbd43c7c8	-0.047797948
99	0xbd8e6841	-0.069534786
100	0x3e8a6886	0.2703287
101	0x3caaabf4	0.020833947
102	0x3d6d654e	0.05795794
103	0xbcd8b10f	-0.026451616
104	0x3e67c8c1	0.22635175
105	0xbc677890	-0.014127865
106	0xbc3cad20	-0.011515886
107	0xbda26328	-0.07929069
108	0xbd45798c	-0.04821162
109	0x3d1ab19f	0.03776705
110	0x3ee73c66	0.45163268
111	0x3d941077	0.07229703
112	0xbd94a978	-0.07258886
113	0xbe1ae862	-0.1512771
114	0x3fc8651f	1.565586
115	0xbc8a0500	-0.016848087
116	0x3f5ae832	0.8551055
117	0x3d67aba8	0.05656019
118	0xbf1a316d	-0.6023167
119	0x3f205b60	0.6263943
120	0xbcba0f6f	-0.022712437
121	0xbd9819fe	-0.074268326
122	0xbd1eaa70	-0.03873676
123	0x3cbab9f0	0.02279374
124	0xbd18d2e4	-0.037310496
125	0xbc1be4b9	-0.009514981
126	0xbdea51b9	-0.114413686
127	0x3cfd5a88	0.030926958

net.4.weight f4 [2, 128]
0	0x3a228fa2	0.00062012125
1	0x3d772f13	0.060347628
2	0x3bd6c2cc	0.0065539833
3	0xbc963eb7	-0.018340452
4	0x3d304732	0.043036647
5	0x38d3dd04	0.000101024314
6	0xbc8b7826	-0.017025065
7	0x3d11b0ff	0.035569187
8	0x3bc617c4	0.0060453136
9	0xbaa90c40	-0.0012897328
10	0xbd23421c	-0.03985797
11	0x398aea05	0.0002649577
12	0x3aa61f9f	0.0012674219
13	0xbadba2d0	-0.0016756896
14	0x3a41cd7c	0.0007392985
15	0xb9d39cdb	-0.00040361923
16	0xbc8df0db	-0.017326763
17	0xbd47c384	-0.048770443
18	0xbac71b02	-0.0015190544
19	0x3cfeeb3c	0.031118028
20	0x3d2b8131	0.041871253
21	0x3c224f4c	0.009906601
22	0xbb9045c8	-0.00440285
23	0xbd1946a1	-0.037420873
24	0x3d8cd82f	0.06877171
25	0x3d13b4da	0.036061145
26	0x3c5783a4	0.013153944
27	0x3c8bbc7c	0.01705765
28	0xbd63dd01	-0.055630688
29	0x3d64d61b	0.05586825
30	0x3ca17798	0.019710347
31	0xbb7edb77	-0.0038888135
32	0xbcff09e2	-0.031132642
33	0xbcd5e72c	-0.026111208
34	0x3c8b6124	0.017014094
35	0x3be9ab02	0.0071309814
36	0x3d91f1e4	0.07126215
37	0x3c934abd	0.017979974
38	0x3cef0f58	0.029182121
39	0x3c5337f6	0.01289176
40	0xbb821a4f	-0.0039704214
41	0x3d171d08	0.03689292
42	0x3d63eac1	0.0556438
43	0x3cfb4d8a	0.030676622
44	0x3d7b9602	0.061422355
45	0x3c04d1b5	0.008106639
46	0x3d0eea33	0.03489132
47	0xba253adc	-0.0006303021
48	0x3d25861a	0.040411092
49	0x3d759996	0.059960924
50	0x3cb742fc	0.022370808
51	0xbd98c495	-0.0745937
52	0xbb1f4856	-0.002430459
53	0xbaacf862	-0.0013196582
54	0x3a5a9a51	0.0008339035
55	0x3cdcfe28	0.02697666
56	0x3c187146	0.00930435
57	0x3aab61b6	0.0013075385
58	0x3bb31567	0.005465198
59	0x3b88c222	0.004173533
60	0xbc4e1c87	-0.012580044
61	0xbd966084	-0.07342628
62	0x390e50df	0.00013572302
63	0x3d85b665	0.065289296
64	0x3c3124bb	0.01081198
65	0xbd75be62	-0.059996016
66	0x3c8ad958	0.01694934
67	0x3dedfe40	0.1162076
68	0xbd577c68	-0.052608877
69	0xbb322c26	-0.002718696
70	0x3d6a3a71	0.05718464
71	0xbb89f138	-0.0042096637
72	0xbb83324b	-0.004003798
73	0xbd787ac8	-0.06066397
74	0xbcca71cc	-0.024712466
75	0x3c4c9968	0.012487747
76	0xbd1a4693	-0.03766496
77	0x3b086207	0.0020810382
78	0xbaa777b1	-0.001277676
79	0xbce827b1	-0.028339239
80	0x3cd3c164	0.025849052
81	0x3d19785c	0.0374683
82	0x3d04df4a	0.032439508
83	0x3d31aeaf	0.043379482
84	0xbc0f3432	-0.008740472
85	0xbda0a5cd	-0.07844124
86	0x3cdbd0a8	0.026832893
87	0x3cae46b3	0.021273946
88	0xbda5fb82	-0.08104612
89	0xb90cce69	-0.00013428334
90	0x3a261c8a	0.000633665
91	0xbd9beb17	-0.07613199
92	0x3bc401d9	0.0059816656
93	0xbd41a177	-0.047273125
94	0x3aa72ffa	0.0012755387
95	0xbb7dcbc5	-0.0038726192
96	0x39873800	0.0002579093
97	0xbca477e0	-0.020076692
98	0x3c87a264	0.016556926
99	0x3d4ff9be	0.050775282
100	0xb9ad9006	-0.00033104437
101	0xbd4bebae	-0.04978531
102	0xbcc56ab4	-0.024098732
103	0xbd968e16	-0.073513195
104	0xb5adf250	-1.2960027e-06
105	0x3b12216d	0.0022297755
106	0x3d16c5b2	0.03680963
107	0x3d9baaf1	0.07600964
108	0xbbca8c8f	-0.0061813067
109	0x3c510924	0.012758527
110	0x3ba9b813	0.005179414
111	0xbd99b0d3	-0.0750443
112	0x3d852a2f	0.065021865
113	0x3aa3d09a	0.0012498081
114	0x3d03df04	0.032195106
115	0xbcf76ea6	-0.030204128
116	0x3b95541d	0.004557146
117	0xbd692fb9	-0.056930277
118	0xbad7c0bc	-0.0016460638
119	0x3bb9d0e8	0.0056706555
120	0xbca970d3	-0.020683682
121	0xbb5bd03b	-0.0033540863
122	0x3b0f3a39	0.0021854772
123	0x3d8d7d71	0.06908692
124	0xbce7658a	-0.02824666
125	0xbd9336cf	-0.07188188
126	0xbd83f9d8	-0.06444138
127	0xbd015be0	-0.03158176
128	0x3ae07b13	0.0017126523
129	0xbda97137	-0.08273547
130	0x3cc27f36	0.0237423
131	0xbce1934e	-0.02753606
132	0xbc4f0950	-0.012636498
133	0x3bc26e43	0.0059335544
134	0xbd1e83f1	-0.038700048
135	0xbc928cef	-0.017889468
136	0xbaa9aaf4	-0.0012944625
137	0xbd662e89	-0.056196723
138	0xbc53ec27	-0.012934721
139	0x3989e048	0.0002629778
140	0xb95f0a14	-0.00021270692
141	0x3d237708	0.03990844
142	0x3a088236	0.0005207391
143	0xb8566ae9	-5.1121144e-05
144	0x3cf78b29	0.030217724
145	0xbd18fa55	-0.03734811
146	0xbc794df9	-0.015216344
147	0xbaee023f	-0.0018158628
148	0xbcbd8796	-0.023135941
149	0x3c49333d	0.012280283
150	0x3d4b158c	0.049581096
151	0xbb209dde	-0.0024508159
152	0x38edb800	0.00011335313
153	0xbd2b2ee3	-0.04179276
154	0x3c833b1f	0.016019402
155	0xbc27e71f	-0.010247975
156	0xbd0dd6f0	-0.03462881
157	0x3d2772a4	0.040880814
158	0x3d9d37ee	0.07676683
159	0x3d6fda0c	0.058557555
160	0x3ce9d0b4	0.0285419
161	0xbcbc37e8	-0.022975877
162	0xbba84606	-0.0051353006
163	0xba9e2382	-0.0012065026
164	0xbd86f976	-0.0659055
165	0xbc87a321	-0.016557278
166	0xb9e9f4dd	-0.0004462366
167	0xbce03a3d	-0.02737152
168	0x3ada1a80	0.0016639978
169	0x3db92430	0.09040105
170	0xbb9161d7	-0.0044367122
171	0x3ca058c7	0.019573582
172	0xbd91ef66	-0.0712574
173	0x3c490147	0.012268371
174	0xbc8a3eb6	-0.016875606
175	0x38910c5a	6.9164395e-05
176	0xbc986f26	-0.018607687
177	0x3d06d244	0.03291537
178	0xbc8555d6	-0.016276281
179	0xbd022e1d	-0.03178226
180	0xbc3ce833	-0.01152997
181	0xb9b5dbca	-0.00034686766
182	0x3d855f84	0.06512359
183	0xbda78bac	-0.08180937
184	0x3c52b346	0.012860125
185	0x39a48c30	0.00031384965
186	0x3b8d743d	0.004316835
187	0x3c4d00c4	0.01251239
188	0x3c6eb02a	0.014568368
189	0xbd9a504c	-0.07534847
190	0xb995f669	-0.00028603085
191	0x3c9845ac	0.01858791
192	0x3c6a32f3	0.014294374
193	0xbcccce9a	-0.025000859
194	0x3d879304	0.06619838
195	0x3d34bf8d	0.04412799
196	0xbd3f7c4f	-0.04674941
197	0xbb3999cf	-0.0028320437
198	0xbd6d57c5	-0.05794503
199	0xbbcaa96f	-0.006184749
200	0x3d557dab	0.0521218
201	0xbb93acad	-0.0045066685
202	0x3cb3baaf	0.021939604
203	0xbc5f9849	-0.013647147
204	0x3c857124	0.016289301
205	0xbc190cd9	-0.009341442
206	0x3c38e633	0.0112853525
207	0xbcd15336	-0.025552373
208	0x3c050578	0.00811898
209	0x3d2c02d8	0.0419949
210	0xbd231402	-0.039814003
211	0xbc43a6d7	-0.011941633
212	0xbbdd2a39	-0.006749418
213	0xbc402d11	-0.011729495
214	0xbcbb9738	-0.022899255
215	0xbd80dc2d	-0.06291995
216	0x3d45e507	0.04831412
217	0x385d0348	5.2693562e-05
218	0x3b19f240	0.002349034
219	0xbd87bdd3	-0.06628003
220	0xbd91eb59	-0.07124967
221	0x3d055b4e	0.032557778
222	0xbd92c51c	-0.07166502
223	0x3b2c9c5d	0.0026338317
224	0xbdaf0ddc	-0.08547565
225	0xbb557340	-0.0032569915
226	0xbda57f02	-0.080808654
227	0xbd0fc113	-0.03509624
228	0xba076024	-0.00051641674
229	0x3d4f0704	0.0505438
230	0x3d80a857	0.06282108
231	0xbc874268	-0.016511157
232	0xbaf71bc3	-0.0018852878
233	0xbba7d707	-0.005122069
234	0xbcf3e6ae	-0.029773083
235	0x3bdbbcd0	0.006705858
236	0x3c1c7f9d	0.00955191
237	0x3d3ae6d6	0.0456303
238	0xbc1859ec	-0.009298783
239	0x3d80b501	0.06284524
240	0xbd8d8e0d	-0.0691186
241	0xbc9252a3	-0.01786167
242	0x3c8434d4	0.016138472
243	0xbd9469c4	-0.07246736
244	0x3bd7ca74	0.0065854136
245	0x3d176c8d	0.036968756
246	0xbcebfc06	-0.028806698
247	0x3ac1cb9c	0.0014785412
248	0xbbd8cdf8	-0.0066163503
249	0xbc212799	-0.009836101
250	0x3c969742	0.018382672
251	0x3d236f4a	0.039901055
252	0xbcc6dc60	-0.024275005
253	0xbccd3069	-0.025047498
254	0xbd7d511d	-0.061844934
255	0x3db36e2f	0.0876125

net.4.bias f4 [2]
0	0x3f5fccaa	0.8742167
1	0x3f5d0241	0.86331564
